checkpoints/rssm_weights.pth (torch, 948065 bytes, 47 tensors)

encoder.val_emb.0.weight f4 [64, 1]
00000000: d8b8 123f 252d 3abf 9107 55be 8624 a4be
00000010: 98ee 2a3f 58df b4be 249c abbe 587e 2ebe
00000020: 9e7d a6be 404a b9bd 73d0 03bf 8cf1 6e3e
00000030: 666c 6b3f 16b7 49bf f37c e43e 0c7f a63e
00000040: 8c50 e8be f15c 66bf 9026 94be 9276 21bf
00000050: 1a27 35bf 9413 373f 43e5 ebbe 93b4 fbbe
00000060: 03c5 053f a8be 59be 49b4 a53e b734 24bf
00000070: 7cf1 99be e756 353f 0c77 7ebf c13d 63be
00000080: 8033 7e3c b097 ebbd d0ce cebd 372f 1b3f
00000090: de37 013f 63bb 39bf 8859 3abf ec27 ddbe
000000a0: 63e0 803f 60ce 4d3e 3e6b 60bf c5aa 46bf
000000b0: eb0f 3f3f 4e31 09bf 1e6d bc3d eafa 45bf
000000c0: 8885 50bf 46df 43bf 89ca ae3d 3cd5 773f
000000d0: a93a 7c3f 46cd 8f3e f4bd 5b3f 0cd7 58bf
000000e0: 38b1 17bf 7b30 143f f4e8 0b3f 9b64 743f
000000f0: 50c2 8ebe ad45 b33e 86d9 043e 1ce2 d2be
0.573133 -0.72725135 -0.20803668 -0.32059115 0.66770315 -0.35326648 -0.33517563 -0.17040384
-0.32517713 -0.09047365 -0.51489943 0.2333433 0.9196228 -0.7879499 0.4462658 0.32518804
-0.45373952 -0.8998557 -0.2893567 -0.6307155 -0.7076279 0.7151425 -0.4607335 -0.49161205
0.5225374 -0.21264136 0.3236411 -0.64142936 -0.3006705 0.7083573 -0.994004 -0.22191526
0.015515208 -0.115035415 -0.1009804 0.6061892 0.5047587 -0.72551554 -0.72792864 -0.4319452
1.0068477 0.20098257 -0.8766364 -0.77604324 0.74633664 -0.5359086 0.092005 -0.7733599
-0.8145375 -0.76512563 0.08534724 0.96809745 0.9852701 0.280863 0.8583672 -0.84703135
-0.5925479 0.57886475 0.54652333 0.9546601 -0.27882624 0.35014096 0.12973604 -0.41188133

encoder.val_emb.0.bias f4 [64]
00000000: d1c9 843e b17c 353f 9ff7 a63e 0910 5d3f
00000010: a36a 63bd ca26 39bf f6e0 7ebf 8113 263f
00000020: 6c4b 9d3e b621 78bf 1640 db3e a5e0 bd3c
00000030: 0184 123f 18e1 d4be ff8d 553d d60d 76bf
00000040: ae34 71bf ecdd 7d3f 44a4 a0be a7c6 5f3f
00000050: 921d 75bf b725 5b3f 1f5e f33e fd5d 2f3d
00000060: 7c63 6dbe a8d8 50be 9316 cb3e 4060 003f
00000070: 2872 25be 8d84 b83e 90be 41bf b280 813d
00000080: 6202 28bf ac33 a9be 60a3 84bd 762a a73d
00000090: 5032 46bf 2c38 703f f8e1 5dbe 76f9 d83e
000000a0: 0dcf 113f 46e4 59bf a866 88be 0dc1 243f
000000b0: c9a2 e3be 5896 66bf 760a 133f 545a 54bf
000000c0: 9a8a 0cbf 8409 3b3e 302c be3d dbc9 b53e
000000d0: e1d5 0dbf 6202 31be 4460 583f d53b 113f
000000e0: f6dc 1bbf 3376 efbd cf80 82bd 7bf5 713f
000000f0: 2c8e 773e edd2 8c3e 7dd2 1d3e bccf 66bf
0.25935224 0.7089339 0.32610795 0.8635259 -0.05552162 -0.7232481 -0.99562013 0.6487351
0.30721605 -0.9692644 0.4282233 0.023178408 0.5723267 -0.41577983 0.05213737 -0.9611486
-0.9422101 0.9916675 -0.31375325 0.87412494 -0.95748246 0.85604423 0.47532746 0.042814244
-0.23182482 -0.20395148 0.3966566 0.50146866 -0.16156828 0.36038628 -0.756814 0.06323375
-0.65628636 -0.33047235 -0.06476474 0.08162396 -0.7742052 0.9383571 -0.21668231 0.42377824
0.5695656 -0.8511394 -0.2664082 0.6435707 -0.44460133 -0.90073156 0.5743784 -0.8295033
-0.5489899 0.18265349 0.09285772 0.35505566 -0.5540448 -0.17286065 0.8452189 0.5673192
-0.60884035 -0.116924666 -0.063722245 0.945152 0.24175328 0.27504674 0.15412326 -0.9016073

encoder.val_emb.2.weight f4 [64, 64]
00000000: f599 d23d a9c8 75bc 816e efbd fe00 403d
00000010: 99fe 673d 28a0 5abd 94ec 953d 40a5 ed3d
00000020: 66a0 853d 0062 1dbc 9e61 a83d 5790 fbbc
00000030: 03d8 0c3d 8449 babd 5784 3ebb 58e9 16bd
00000040: e85d 1e3d 535c c1bd c079 98bd b17f 3b3d
00000050: 94fb 343d 2e40 86bb 7027 083d d475 c2bd
00000060: e3a6 fabd 3839 a8bc 9fc0 303d 1772 c2bd
00000070: c071 6f3c cbea 8a3d 9454 27bd 19df bbbc
00000080: 9eec eabd aee7 f33d 20e1 5b3d dba4 e6bd
00000090: 3c21 53bd f78a cc3d d86b e3bd 0af4 06be
000000a0: 2c6f 3abd 1ee5 dabd 04ee ba3d bc85 8c3d
000000b0: dddb 933d aabd a83d 6f83 02bd 3663 c03d
000000c0: c054 1f3b c09c ee3c 3263 6e3d f982 4cbd
000000d0: 2d99 95bd 1fef ebbd 75a8 ae3d 5299 02bb
000000e0: a8b6 c0bd 2924 99bd da31 2b3d bd3f 05be
000000f0: 4aa9 08bd 9886 1a3b 9515 ba3d e00b fcbd
00000100: 54a2 aa3d 7c42 723c e6c4 bcbb 497f 2d3d
00000110: 4186 3f3d f05d c93d f8e5 fa3d c17a c13d
00000120: fb6c cebc 88f0 fc3d 1cd7 bd3d 5130 e3bc
00000130: 963a c33d 7480 383d d50c 23bd 6a9f e23d
00000140: 408b f23b f05b d9bd 08b3 493d e9e7 97bd
00000150: 28ae a7bc 0a05 253d 25a4 623d a8b5 13bd
00000160: b42b 64bd ec80 e8bd 51b8 823c 7f2b 073e
00000170: d4d6 703d fa6e 9e3d 7281 c33d 1a93 91bd
00000180: 6004 51bd 2058 46bd 7c0b d6bd bc72 bbbc
00000190: 7808 b8bc 63c2 943d 8086 9e3b 6179 953d
000001a0: 4ff0 8abd 708b 82bc b87b 9c3d c63e e53b
000001b0: 6c9a 16bd 6036 9fbd 2084 f03c 0402 e5bd
000001c0: b60b d13d 41f0 163c 4104 e2bd 727d aabd
000001d0: f4ce 6c3d 2bc7 b5bd 6aeb e73d 1838 953d
000001e0: 4062 323b f82a ee3d 3b6a b1bd 7238 833d
000001f0: 6a12 3b3d 22eb 033e 025c 853d ee9d bdbd
00000200: 56d1 93bd c044 d6bd b9a5 933c b77c bb3d
00000210: e18d e03d 7cf9 893d 3410 203d 2b39 f3bd
00000220: 6aec 503c c0a7 d3bb 01e9 d2bd 9607 963d
00000230: 9066 b6bd a0df 1f3d f964 eabd d455 4e3d
00000240: dca8 36bd 61ff be3d a02d 39bc 413c 3cbd
00000250: 8e34 aa3d 5948 b73d 7bf9 c53d 6976 89bd
00000260: a8a0 ea3d f019 023d af8e e4bb f8bf 92bd
00000270: e222 b53d 8195 8bbd 0806 8c3d 850b 773d
00000280: c09f ac3d 1891 ba3d 0000 c9b6 6bf1 db3c
00000290: a01a e2bb a204 dfbd 507a 4cbc 5a2c 963d
000002a0: e78e eb3d 08d3 cd3c 403a 1f3d ac44 debc
000002b0: 1d0f 653b bc58 f53d dfec e63c b8de 5d3d
000002c0: 52c5 e33d 29cc bcbd 1997 bbbb d01a 85bd
000002d0: 8d0f f23d 1cbd 2abd 8446 023e e967 b93d
000002e0: 284a 943d f03e 893d 7806 973d 9bc4 e63d
000002f0: 0e35 f43d a9b2 473d 773b c03d 5ef4 bdbd
00000300: 4eca 0b3e 0749 233d d71c 87bd 2a9a 263d
00000310: a3f4 83bd 8407 76bd 0003 6abd 42d9 d3bb
00000320: d349 89bc c6de be3d 3635 933d e656 94bc
00000330: 5576 b33d 10fc 14bd 4761 6a3d 2001 da3b
00000340: d81a 6c3d 13a8 8b3d f0a7 513d 5b2d 95bd
00000350: f0bd 57bc d234 e63d b5f5 383c d0a2 c8ba
00000360: 752a 60bd 3a09 c2bd 75bc bfbd 2d0d f33d
00000370: fc2b 54bd efae cebd 88e8 4ebd b6d6 d2bd
00000380: 96dd 93bd 8269 b7bd 6809 f43d b6a2 d8bc
00000390: ec35 f3bd b769 eb3b 80ad faba 9195 013e
000003a0: 9206 833a 1029 85bd 88f2 88bd ded9 40bc
000003b0: 99bb 623b c4cc 8e3d 6428 943c 24f1 e3bd
000003c0: a8aa 243d 0f21 973d 263f 7f3d 8622 c53d
000003d0: db5e cabd 18ba 00bd afff f53d 4d8d 89bd
000003e0: 58fe 97bc 7df1 b43c dc2d cebd 5607 793d
000003f0: 5714 bb3c ab85 a6bb 7fc8 803d aa5b e63d
0.10283271 -0.015001454 -0.11690999 0.046875946 0.056639288 -0.053375393 0.07320514 0.116037846
0.06524734 -0.009605885 0.08221744 -0.030708475 0.034385692 -0.09096053 -0.002907058 -0.036843628
0.038663775 -0.094414376 -0.07445097 0.045776073 0.044185236 -0.0040970063 0.033240736 -0.0949513
-0.12238862 -0.020535097 0.043152448 -0.09494417 0.014614522 0.067830645 -0.040852144 -0.02293353
-0.114709124 0.11909424 0.053681493 -0.112619124 -0.051545367 0.09987443 -0.11104554 -0.13179031
-0.045516178 -0.10688232 0.09127429 0.06861445 0.0721967 0.082393005 -0.031863626 0.09393923
0.002431199 0.029127479 0.05820007 -0.049929593 -0.073046066 -0.11520218 0.085282244 -0.0019927812
-0.09409839 -0.074776 0.04179559 -0.13012595 -0.03336457 0.002357876 0.09086148 -0.123069525
0.08331743 0.014786359 -0.005760777 0.042357717 0.046758894 0.0983237 0.12250894 0.094472416
-0.02519845 0.12350565 0.092695445 -0.027733 0.09532659 0.045044377 -0.03980716 0.11065562
0.007401854 -0.10613239 0.049243003 -0.0741728 -0.020468786 0.04028801 0.05533232 -0.036061913
-0.05570574 -0.11352715 0.01595703 0.13200186 0.058798626 0.07736011 0.09546174 -0.071081355
-0.051029563 -0.048423886 -0.10451409 -0.022881858 -0.022464976 0.07263639 0.004837811 0.07298542
-0.067841165 -0.01593563 0.07640785 0.0069960086 -0.036768362 -0.07774043 0.029359877 -0.11182025
0.10207312 0.009212554 -0.110359676 -0.08324708 0.057814553 -0.08875879 0.113241985 0.0728609
0.0027219206 0.116292894 -0.0866284 0.064072505 0.045671858 0.12882665 0.0651169 -0.09258638
-0.07217662 -0.10462332 0.018023359 0.09154647 0.10964561 0.067370385 0.039077953 -0.11876138
0.012751678 -0.0064592063 -0.10298348 0.07325666 -0.08906281 0.039031625 -0.1144504 0.05037482
-0.04459463 0.093260534 -0.011302382 -0.0459559 0.08310805 0.08949346 0.09666725 -0.06712038
0.11456424 0.031763017 -0.006975017 -0.071655214 0.08844544 -0.06815625 0.06837088 0.06031372
0.084289074 0.09109706 -5.990267e-06 0.026848515 -0.0069001466 -0.108895555 -0.012480333 0.07332678
0.11501866 0.025125042 0.03887391 -0.027132355 0.0034951635 0.11979815 0.02818912 0.05416748
0.1112162 -0.09218628 -0.0057247994 -0.06499255 0.11819372 -0.041684255 0.12722212 0.090530224
0.07240707 0.067014575 0.07374281 0.11267968 0.11924182 0.048754368 0.09386342 -0.09275125
0.13651392 0.039864566 -0.06597298 0.040674366 -0.06443145 -0.06006576 -0.057131767 -0.006465108
-0.016758835 0.093198344 0.071878836 -0.018107843 0.087628044 -0.036373198 0.057221677 0.006652966
0.057642788 0.06819167 0.05118555 -0.072840415 -0.013167843 0.112405434 0.01128905 -0.0015307311
-0.05472799 -0.09474416 -0.09362117 0.118677475 -0.05179976 -0.1009196 -0.050514728 -0.10294859
-0.072199985 -0.08955671 0.119158566 -0.026444774 -0.11875519 0.007184233 -0.0019125193 0.12654711
0.0009996465 -0.06501973 -0.06686884 -0.011770694 0.003459668 0.0697265 0.018085666 -0.11129978
0.040201813 0.07379352 0.062316082 0.096257254 -0.098813735 -0.031427473 0.120116584 -0.06716404
-0.018553898 0.022087807 -0.10067341 0.06079801 0.022836847 -0.0050818524 0.062882416 0.11247952

encoder.val_emb.2.bias f4 [64]
00000000: a6e3 ecbc 31eb ee3d eafb 6cbd 67c1 d83d
00000010: 44d7 a13c 2046 5ebd 47eb 003d ad48 bd3b
00000020: a9b9 b3bc 320a 603d 9123 003d 398d b3bd
00000030: 8c28 d23b f466 14bd b917 b63d 85c8 9dbc
00000040: 875d 043d bb00 92bd 4dd2 f83c 9d75 a63c
00000050: 4ab2 c63d 796f 3fbc 0c66 21bd 8a3b c8bd
00000060: 2a29 e1bd 6b21 da3d e557 c13d a684 173d
00000070: 5b04 6f3b 7dad 59bc ea96 db3d 887f e9bd
00000080: 3947 383d 75d0 05bc 2adb fb3c 2278 ed3d
00000090: 756b 63bd cf16 e6bd b57d 7dbd e0a9 a53d
000000a0: 9cd9 a3bc 984c 463d 364f bfbc cea3 b4bb
000000b0: 913c 623d 9073 263d 8bab 893d 7afb a9bb
000000c0: 7f6d b33d 214b 80bd 974b 8dbd 49a6 54bd
000000d0: 2d1c dbbc 760a d53d 5d3f dbbd db8d 733d
000000e0: da6e e53d 77b6 61bd bc1b e43d 8524 ca3d
000000f0: ce1b d7bd 4d9a 0abc f76b 37bc 94a1 653c
-0.028917145 0.11665953 -0.05785743 0.105837636 0.019755967 -0.054266095 0.031474378 0.005776486
-0.021939116 0.054697223 0.03128392 -0.087671705 0.006413525 -0.036230996 0.088912435 -0.019260654
0.032315757 -0.071290456 0.030373717 0.020319754 0.09701975 -0.011684292 -0.03940396 -0.09776981
-0.109941795 0.10650905 0.09440593 0.036991738 0.0036471102 -0.013285992 0.10722144 -0.11401278
0.0449898 -0.008167376 0.030744154 0.11595179 -0.0555224 -0.11234819 -0.06188746 0.08089042
-0.020001225 0.04841289 -0.0233532 -0.005512691 0.055233542 0.040637553 0.06722172 -0.005187449
0.08761119 -0.0626433 -0.06899183 -0.051916394 -0.026746834 0.10402386 -0.10705445 0.059461456
0.11202784 -0.055105653 0.111381024 0.09870247 -0.1050335 -0.00845964 -0.011195174 0.014015574

encoder.transformer.layers.0.self_attn.in_proj_weight f4 [192, 64]
00000000: 029c f03d d0cd ff3d eb10 25be 8d9a bc3d
00000010: b5e9 d2bd 05fb cb3d acea 11bd 8519 a43d
00000020: 65ee e13d 9a8e 373c fdad c7bd 9561 75bb
00000030: b21c 553c f07f 13be 36fd 693d d2b5 033e
00000040: 1b4d 543d 2de6 53bd a5a9 11be d9d8 0d3e
00000050: 59bb 71bd a5c3 8abd 1201 38bd 1bd6 613c
00000060: be03 afbd ac4a 063c 7692 103e 6ec4 f8bd
00000070: 3812 24bd 0b30 50bc 92d7 50bd b764 02bd
00000080: 9355 17bd 44b0 75bd 6424 9abd d2fc b23c
00000090: caa4 d4bd acb9 c13d c85a 1e3e 7d8c 583d
000000a0: a752 05be 9b0f 0c3d bd3d c5bb 8ff2 e23d
000000b0: b8dc 94bc 2801 05be 540c 27bd 22b0 c33d
000000c0: 71d0 673d faf7 94bd 90d2 76bd e83e 193e
000000d0: 18ed f93d 7983 693d 6d1c 0f3c 01ae 0bbe
000000e0: 02b6 0dbd 1f40 aebd 13b1 94bd 0141 00be
000000f0: 63eb 49bd 00c0 9cbd ac8f 2cba 16b5 0f3d
00000100: fc63 833d 4ec2 9fbc f3f4 063a fc49 203c
00000110: 5dec db3c 8b0a c4bc bf55 f0bc a801 523c
00000120: 7c3c 8dbd 316c 1b3e e259 a73d 7fda 0e3d
00000130: 8869 253d 3960 523c f8c0 e03d 27df 0cbe
00000140: 9ac4 0f3e 50a3 833c ff5d c2bd e02c 14be
00000150: 8ab2 b8bd 1320 643d 5ce5 15be 1ecb 10bc
00000160: b65e ffbd eb19 e03d b952 173e 98e3 073e
00000170: 8bf6 003d 7387 db3d 7a86 453d fcb5 90bd
00000180: 82a8 bb3d 857b 753d 316a 06be 159a 0ebe
00000190: 0be7 173e 8b00 ee3d 4bce 293c dcfe 423d
000001a0: 658d 07be 656d a9bd 5f34 f43d 0db8 5bbc
000001b0: 271f 143e 57cd 08be dec1 b6bd 339e de3d
000001c0: e334 16be 0f52 01be 8253 a53d dff7 1ebe
000001d0: 3e06 37bd 2ae5 09bc cf73 9a3c da26 57bd
000001e0: 1b0d 903d 9de1 a5bd 7f3f 983a 5dbc 8fbc
000001f0: 1642 e83d 3ce1 c4bd 7f54 a6bd 2227 aabd
00000200: e8ce febd 1217 a83d a0cb 063e 0383 0ebe
00000210: 831d bbbd 198b 273d 8f67 0cbe 07c1 bcbd
00000220: 07c2 d4bd 0aaf 7ebd b95e 883d c14b e7bd
00000230: 1d81 03bd 7e21 f13d 1d2b a0bd 1433 3d3d
00000240: 7cb3 7bbd 2343 1e3e e3c1 e9bd 66ed 30bd
00000250: 947a f23d 5ac8 afbd 504a 783d e427 293d
00000260: 8ffc a7bd 6f19 8bbc 8968 bebd 865a 49bd
00000270: 0099 cebd bd0f b6bd 06a2 ae3c d6e7 bc3d
00000280: 651f e23c b895 f5bd e38e 13be 27db dabd
00000290: 4433 e53d 146f 403d 895d 0d3d a2ec 15bc
000002a0: 8cf1 98bd 95d5 05be 2f8a a3bd dd00 f33d
000002b0: 8720 0d3e 9940 14bd d892 d33d 4d83 81bd
000002c0: d436 25bd f2dc 63bd 62fc 14bc e57c 74bd
000002d0: b00f a93d 677d 933d 911a 51bd 3beb 8bbd
000002e0: 0070 9b3d 42bc 3c3c 36de d0bd f29b 82bd
000002f0: 0b22 093e 06e9 b0bd 87f6 52bc 05e4 023e
00000300: 393c cc3d 823d dcbd db93 093e 10e7 09be
00000310: 8f3c f1bd ee7c c73c 5880 c13d 77b9 0dbd
00000320: 6438 2cbe 79b9 f4bd d807 a93d 3abb dcbc
00000330: 04e4 44b9 821e 0b3e 7620 17be 6133 6c3d
00000340: 8939 c439 d7ac 8a3d c09e ae3d 489b 00bc
00000350: 49d0 06be 602b 08be c130 e1bd 3295 9cba
00000360: 9e96 da3d a8ff 223c e1da dcbc 6fb7 183e
00000370: 8207 f3bc efd2 dcbd 5017 71bd 21c1 fa3c
00000380: 789f 10bc f1ca 00be b4d1 163d bb09 f53d
00000390: c536 9a3d 246c 4a3d b38f 74bd 57e2 d0bd
000003a0: a05c ef3d f711 bdbd a7b2 0a3d c5cd 933d
000003b0: 0554 dfbd 96f8 8cbd d733 0a3e 1383 073e
000003c0: 760b 87bd 3fb7 0fbe c439 2b3d f974 ba3d
000003d0: 4f51 18bc 2b08 4dbc ea4d 143e 543e b73c
000003e0: fe16 13bd 52bd ddbd cdc7 753d 8567 43bd
000003f0: 273b d1bd 2e1b eabc 98f4 62bd 5a07 a43d
0.11748506 0.124904275 -0.16119735 0.09209166 -0.10298482 0.099599876 -0.03562419 0.0801268
0.11031798 0.011203432 -0.097499825 -0.0037442197 0.01300733 -0.14404273 0.057126246 0.12862328
0.051831346 -0.051733185 -0.1422487 0.13852252 -0.05901656 -0.067755975 -0.044922896 0.013783957
-0.08545636 0.008196514 0.1411837 -0.12146841 -0.040056437 -0.012706767 -0.050986834 -0.03183433
-0.036946844 -0.059982553 -0.07526472 0.02184907 -0.103829935 0.09459242 0.15464318 0.052868355
-0.1301981 0.03419457 -0.0060193227 0.11081421 -0.018171653 -0.12988722 -0.04078324 0.09555079
0.05659527 -0.0727386 -0.0602594 0.14965403 0.12203425 0.057010148 0.008734805 -0.13640596
-0.034597404 -0.08508324 -0.07260337 -0.12524797 -0.049296748 -0.076538086 -0.0006582688 0.035084806
0.06415555 -0.019501831 0.00051481946 0.009783264 0.026846105 -0.023930809 -0.029337762 0.012817778
-0.06896302 0.1517799 0.08171441 0.034876343 0.040383846 0.012840324 0.10974306 -0.13757001
0.14039841 0.016069084 -0.094905846 -0.14470243 -0.090184286 0.05569465 -0.14638275 -0.008837489
-0.124692366 0.109424435 0.1477765 0.13270414 0.03148512 0.10719194 0.04822395 -0.07065961
0.09163 0.05993225 -0.13126446 -0.13925965 0.1483423 0.11621197 0.0103641255 0.047606334
-0.13237531 -0.082728185 0.119240515 -0.01341058 0.14465009 -0.13359581 -0.08923696 0.10870018
-0.14668612 -0.12628959 0.080725685 -0.15524243 -0.044683687 -0.008416453 0.01885405 -0.052527286
0.0703375 -0.08099673 0.0011615603 -0.017545873 0.1134073 -0.096132725 -0.08121585 -0.08308245
-0.12441808 0.08207525 0.13163614 -0.13917165 -0.09136488 0.04090414 -0.1371138 -0.092165045
-0.1038857 -0.06217865 0.06658692 -0.11293746 -0.032105554 0.11773966 -0.07820723 0.04619129
-0.061450467 0.15455298 -0.11413934 -0.04319515 0.11839786 -0.08583136 0.060617745 0.04129781
-0.082024686 -0.016979901 -0.09297282 -0.049158596 -0.10087776 -0.088897206 0.021317493 0.09223907
0.02760286 -0.11991447 -0.14409976 -0.10686331 0.11191419 0.046980932 0.03451303 -0.009150656
-0.074679464 -0.13069756 -0.07985341 0.11865399 0.1378194 -0.036194418 0.103307426 -0.06323872
-0.04033549 -0.05563063 -0.009093376 -0.05968942 0.08254945 0.07201653 -0.051050726 -0.06831976
0.07589722 0.011519494 -0.101986334 -0.063774005 0.13391893 -0.08638196 -0.0128761595 0.12782295
0.09972424 -0.10753919 0.13435309 -0.1346705 -0.11779129 0.024351563 0.09448308 -0.0346007
-0.16818386 -0.119494386 0.08253449 -0.026944745 -0.00018776959 0.13585857 -0.14758477 0.057666186
0.000374269 0.06771248 0.08526373 -0.007849522 -0.13165392 -0.13297796 -0.10995627 -0.0011946319
0.10673259 0.0099486485 -0.026959838 0.14913724 -0.029666666 -0.1078242 -0.058860123 0.03060967
-0.008827083 -0.12577416 0.036821082 0.119647466 0.07529978 0.049419537 -0.059707355 -0.10199421
0.11687589 -0.09231942 0.033861782 0.07216982 -0.10904697 -0.068833515 0.13496338 0.13233595
-0.06593983 -0.14034747 0.041803136 0.09104342 -0.009296729 -0.012514154 0.14482847 0.022368588
-0.0359106 -0.108271256 0.060004998 -0.047706146 -0.102163605 -0.028577413 -0.055409044 0.08009215

encoder.transformer.layers.0.self_attn.in_proj_bias f4 [192]
00000000: 0b16 873b c92f 13b9 dd7c 0f3b e010 333c
00000010: 8084 493a 6748 1cbb 1efe 23bb 39de 90bc
00000020: 9a75 233c ce12 b439 6234 603c dd58 48bc
00000030: b68e f4b9 a40d 23bc 7b77 253c 3c7c 6f3c
00000040: de21 e73b 474b ff3b 3e3e e2bb 2a0f dc3b
00000050: 88b1 01bc f0f9 fa3b cfcd 913b b342 7dbb
00000060: 3287 a33b 600e 483a 54bc cd38 ddee 2639
00000070: 4f91 0dbc 7998 cebb acb4 b53b 1942 a439
00000080: 7f99 a2ba bd3f 123b 5a79 f83a b093 24bc
00000090: 90ca dbba 3711 683c 0649 abbb b1ca 56bc
000000a0: 98fe 60bc 05a7 debb d756 ed38 2c4e 3c3b
000000b0: 95cb 4e3c f2a1 92bb 803e 023c 8950 3dbc
000000c0: d0f9 bbbb 1974 3fbb 3bb2 3e3c 445c 87bb
000000d0: 327e b1bb c205 0abc 0996 b3b7 0142 9fbb
000000e0: 38da 2a3c e1a6 103c 2d12 5bba 6390 8bbb
000000f0: 71da 2fbc a467 1fbc e700 bfba ddaa 1b3c
00000100: 00a9 08b3 d99b 2733 86a9 12b4 0b85 6a33
00000110: 5790 a834 93e8 14b4 0a3b 9bb0 de7e b232
00000120: 109f b434 b2ad a033 840c 9d34 0da9 92b3
00000130: 5cc4 d133 5bcc d6b3 8a69 0c34 b740 2133
00000140: 13cd 12b4 ab5d 5634 9d8a 8eb3 9d1b 3d33
00000150: d464 0a34 128f b8b3 49a4 18b4 a658 ad32
00000160: 05fb e7b3 2789 6634 e388 a9b3 c4e2 aa32
00000170: b5af e632 7a82 2c33 414f 9ab3 6d34 07b4
00000180: 78c6 4bb3 f617 5e32 1283 52b3 ccdc 1fb4
00000190: f598 8832 144c 3db1 ccaa fb34 c7a8 c133
000001a0: a78e fbb1 57d3 8d33 f51b 2532 a6eb 3532
000001b0: 407c 9b34 04ef ddb1 34ca 98b3 f743 1f34
000001c0: 44c5 e6b3 ee19 12b5 e1e3 6530 ffae e5b3
000001d0: 41af 9634 a6c3 acb4 11b2 ad34 50ed 0234
000001e0: ac97 2c33 685d 4bb4 04db 5db2 9795 6ab3
000001f0: 8b39 2334 f8e7 1334 ca0b d8b3 acaa 8533
00000200: 51af 1b3b 60f5 013b 9bd0 283c a90b 90bc
00000210: c618 ab3b 2462 4ebb 5d50 383c 6b9d 5f3c
00000220: 6cae 59bc 4cce d13b 51f9 81bc 6538 95bb
00000230: 5e91 01bb 4a49 e1bb f244 1c3c 07c8 2fbc
00000240: 2ec6 593c 5d4a 2e3b 432c 44bc 56cc a53b
00000250: 052f 893b e2f2 00bc 61c4 1e3c 4d37 86bb
00000260: e908 fdbb 1ac5 c53b 3c02 41bc f7e4 9cbb
00000270: e25e f9ba b93e 453b ef7f 533c 8667 f33b
00000280: 8cb8 a9bb df2b 133c 25df 073c 3ebc 12bb
00000290: 9d39 023a 83c5 813c 0455 97bb acaf ecba
000002a0: d6da ea3a 99ec e5bb 2316 04bb c779 2e3c
000002b0: 53d7 463b afe1 d9bb c558 8cb9 e291 49ba
000002c0: 29f4 22ba a042 8abb e02e f7ba bedb 29bc
000002d0: df3b 9c3b f20b 213b d688 e6bb 4cbd 75bb
000002e0: e9d9 213c 3645 11bc 1dde 2a3c a127 803b
000002f0: 85f0 d63b 765f f1bb c895 7e3b 2d5e 193c
0.004122501 -0.00014036814 0.0021894493 0.010929316 0.00076872855 -0.0023846866 -0.0025023292 -0.017684089
0.009976769 0.00034346286 0.013684364 -0.012228218 -0.00046645635 -0.009951983 0.010099287 0.014617022
0.007053598 0.007790956 -0.0069043925 0.006715675 -0.007915862 0.0076591894 0.004449583 -0.0038644492
0.004990482 0.00076315366 9.8102406e-05 0.00015919977 -0.008640601 -0.0063047973 0.0055452194 0.00031329764
-0.0012405365 0.0022315823 0.0018957064 -0.010044977 -0.0016768742 0.014164261 -0.005227211 -0.013109849
-0.013732575 -0.0067948126 0.00011317216 0.0028733118 0.01262178 -0.004474872 0.0079494715 -0.011554846
-0.005736567 -0.0029213487 0.011639173 -0.004130872 -0.005416655 -0.008424224 -2.1408328e-05 -0.004860163
0.010428004 0.0088288495 -0.00083568954 -0.0042591556 -0.010733233 -0.0097293 -0.0014572412 0.009501186
-3.1818672e-08 3.902446e-08 -1.3658982e-07 5.4603372e-08 3.139746e-07 -1.3868184e-07 -1.1294514e-09 2.077962e-08
3.3643346e-07 7.4821756e-08 2.9252635e-07 -6.829405e-08 9.7680385e-08 -1.00023236e-07 1.3076911e-07 3.754459e-08
-1.3671915e-07 1.996438e-07 -6.637604e-08 4.4030106e-08 1.2888933e-07 -8.594192e-08 -1.421587e-07 2.0180163e-08
-1.0802436e-07 2.1470315e-07 -7.894575e-08 1.9893726e-08 2.6855426e-08 4.016554e-08 -7.1856e-08 -1.2591927e-07
-4.7445127e-08 1.2927549e-08 -4.9013643e-08 -1.4888354e-07 1.590204e-08 -2.7546365e-09 4.6876664e-07 9.017963e-08
-7.321279e-09 6.6042666e-08 9.610621e-09 1.0589167e-08 2.8961404e-07 -6.4591195e-09 -7.114832e-08 1.4832754e-07
-1.0746092e-07 -5.442697e-07 8.363355e-10 -1.0695475e-07 2.806719e-07 -3.217985e-07 3.2353321e-07 1.2193527e-07
4.0184815e-08 -1.8939829e-07 -1.29136914e-08 -5.4618422e-08 1.5201492e-07 1.3774832e-07 -1.0060428e-07 6.22434e-08
0.002375562 0.0019830093 0.010303642 -0.017583685 0.005221459 -0.0031491602 0.011249629 0.013648371
-0.013286214 0.0064027663 -0.015865954 -0.004553842 -0.0019770483 -0.006875192 0.009537922 -0.010728843
0.013291879 0.0026594617 -0.011973443 0.005059759 0.0041865134 -0.007870408 0.009690375 -0.004095948
-0.0077220094 0.006035459 -0.011780318 -0.004788037 -0.001902547 0.00300972 0.01290892 0.0074281124
-0.0051794704 0.008982628 0.008292948 -0.0022390033 0.00049676915 0.015841251 -0.004618289 -0.0018057725
0.0017918001 -0.00701673 -0.0020154796 0.010649151 0.0030340746 -0.006649218 -0.0002676902 -0.000768928
-0.0006216192 -0.004219368 -0.0018858574 -0.010367332 0.0047678794 0.002457377 -0.007035355 -0.0037496863
0.009878614 -0.008866599 0.0104289325 0.003910974 0.006559434 -0.007366116 0.00388466 0.009360832

encoder.transformer.layers.0.self_attn.out_proj.weight f4 [64, 64]
00000000: bec1 29bd 6666 923c aac6 3a3d 87fc ecbd
00000010: 7a8f 36bd 91f0 fc3d 1506 b03d 9ab5 dbbd
00000020: a772 033d e707 8a3d a571 d13d 45de b43c
00000030: 601e 9d3c a68d 9bbd dd90 9bbd 12f9 8e3d
00000040: 76d4 e03c 542c ba3c a4f8 9abc f860 883d
00000050: e31d a03d 65c1 d03d c94f ce3d 83a5 fa3d
00000060: 3d0a c73d a0c8 e23c b302 cfbd b17d b13d
00000070: cfae 84bd 44e8 f9bd d084 ac3d f19a 74bd
00000080: a394 e2bb 8807 08bd 4774 753c a05e 4c3d
00000090: e58d 94bd 22da 7bbc e0bf a53d e9d0 9b3d
000000a0: caf4 f53d 571c 9fbd 755b e43c 3f50 4abd
000000b0: 6a16 5e3d 1c56 93bd b0aa c0bd e56b c73d
000000c0: f8d7 cbbb 7395 02bd c88f e1bd 9a82 8bbd
000000d0: 4683 003e ba27 80bd 1097 e7bd 0e2c e3bd
000000e0: d85d 053d 6c25 f3bd 5f66 8b3d 501a 8bba
000000f0: 008e d23d 28df f8bd e8e6 a33d 80e4 62bc
00000100: 6022 9e3d 24a8 b43d 47f7 d83d 3e0e b1bd
00000110: 2e5d f23d a409 0dbe 21f6 e63c 9eae f33d
00000120: 748a a9bd 6e6c bb3d 6938 bfbd 121b 813d
00000130: d4ed c5bd 9f15 e8bd f3f0 063e 5cd3 9d3d
00000140: 7981 d53d e889 a43d f1a4 f7bd fbc0 8dbd
00000150: 4ea4 603d a905 a3bd 1161 cf3d 61fc 893c
00000160: 99fa 41bd 56de 503d fda3 70bd 719d 70bd
00000170: 4865 143c f535 e33d 5b89 783c fa84 313d
00000180: 2a41 593d 3048 663c 44e9 02bc 5fa7 c03d
00000190: 8873 1a3d 74dd babc 9535 15bd 645e d13d
000001a0: 8e25 7fbd 5e42 ad3b c273 193d 2ff2 0c3e
000001b0: 83be ffbb eb55 073d 838b f63b fb4e d9bc
000001c0: 4621 b1bc 4e1b 0cbd 17a8 c1bd 00a7 6a3d
000001d0: fc37 043e 0c31 11bd bf5d fabd eff2 3b3d
000001e0: bd94 cfbd dedb d6bc b90e 4fba f41d 10bd
000001f0: 176c e93d 298c 72bc a33d 593c d025 8bbd
00000200: f35b 12bd 82fe 7dbd 0cde 633d 240e bdbc
00000210: 5062 13bd eef2 993d 7de8 dabd 20c2 c53c
00000220: e58c d2bc 2469 883d 60c9 bfbd fc40 9d3d
00000230: fd31 c63d 8bb4 ac3d a565 82bd 5398 f2bd
00000240: 230a 983d 46f6 e83d 7f72 9fbc 34b3 b23d
00000250: 66b5 dd3d 8ab7 9fbd c90d b7bc 8fbb 21bd
00000260: 6a24 223d 802e a13d a2b2 9f3b c60d 6bbc
00000270: 539d e9bd 64bc a3bc 8e59 88bd 7ab7 c33d
00000280: aadc fd3b 5a2d 46bc 4735 a53d 29ad 8fbd
00000290: 5f42 5cbd 7f24 323d 44ae d83d 2078 c03c
000002a0: 1cec 89bc 823a f83c 787f 9dbd 2a2b 1c3c
000002b0: 9e19 993d 83a8 97bc 1f6b 903c 3326 3d3d
000002c0: fa25 a1bd 3857 86bd 2a87 753d 2d89 bf3d
000002d0: d54a e6bd f844 fabc 72c5 d13d 57da bebd
000002e0: 7f17 50bd a42e f2bc 4b6a 8fbd a05e edbc
000002f0: ebc5 cf3d 975a 88bd 121f 203d e052 2a3d
00000300: 8a6f 9dbc fe44 acbd bc6f 90bd 3950 bb3d
00000310: 310c d03d 5be9 11bc 0cf2 bf3c 130b a33d
00000320: e891 b5bd c373 4ebd 7398 6c3c 60b3 8d3d
00000330: b3cf 5dbd e313 a1bd 2d2a b83d e839 8cbd
00000340: 26b2 c5bd afa3 a43d 728c 9e3a aacb 813d
00000350: cf27 ebbc eeca 09be 827f 5a3c 8be9 25bd
00000360: f57f f7bd 9415 e8bd 818e ecbd 16f0 c1bd
00000370: 48c6 c63d f06e 3dbd 1575 43bd 559e d7bd
00000380: f8b9 663d e7f8 303d 7e51 36bc f672 223d
00000390: dd8e 93bd eabe 0b3e b4da 03bd 0823 80bd
000003a0: c38f 693d 810f b0bd ecad 023e c8be fc3d
000003b0: e136 8abc 0339 1abc c639 803d d7ea 823d
000003c0: 334b e23b 1df1 8bbd f3ea 09bd f5dc 04bd
000003d0: eb52 c63d f031 05bc 4f6e 9abd e953 b9bd
000003e0: 271d 493d 9b91 603d c155 73bc 8756 1c3c
000003f0: beea 313c 1e37 6abd 4ced 793d 5d11 553d
-0.041444533 0.017871093 0.045599617 -0.11571603 -0.044570424 0.12350572 0.0859491 -0.10727997
0.032091763 0.067397885 0.10226754 0.022078643 0.019179523 -0.07595377 -0.0759599 0.069811
0.02744506 0.022726215 -0.01891739 0.0665912 0.078182004 0.10193137 0.100738116 0.122386
0.0971875 0.027683556 -0.10107937 0.08666552 -0.064786546 -0.12202504 0.084237695 -0.059718076
-0.0069146915 -0.033210307 0.014981336 0.04989493 -0.07253627 -0.015371831 0.08093238 0.07608206
0.120095804 -0.07769077 0.027875641 -0.049392935 0.054220594 -0.071941584 -0.09407556 0.09737376
-0.006220814 -0.031880807 -0.11013752 -0.0681202 0.12550077 -0.06257577 -0.1130811 -0.11092387
0.0325602 -0.11872372 0.06806635 -0.00106127 0.102809906 -0.12151939 0.08003026 -0.013848424
0.077214 0.08821133 0.105940394 -0.086452946 0.11834179 -0.13773209 0.028193535 0.1189854
-0.08278361 0.09151541 -0.09336931 0.063039914 -0.09664503 -0.11332249 0.13177852 0.07706329
0.104250856 0.08034116 -0.12092007 -0.06921574 0.054844193 -0.07960064 0.10125936 0.016843976
-0.04735813 0.050993286 -0.05875014 -0.058743898 0.00905735 0.11094276 0.015169467 0.043339707
0.05304066 0.014055297 -0.007990185 0.094069235 0.037707835 -0.022810675 -0.036428053 0.10223082
-0.062291674 0.0052874526 0.03746391 0.1376426 -0.007804693 0.033040922 0.0075239553 -0.026526919
-0.021622311 -0.034205727 -0.09455889 0.05728817 0.12911981 -0.035447165 -0.12224912 0.045885976
-0.101357915 -0.026227888 -0.0007898617 -0.035184816 0.113975696 -0.014803925 0.013259324 -0.067943215
-0.03573222 -0.062010296 0.055631682 -0.023078032 -0.03598243 0.07517038 -0.10688875 0.024140418
-0.02570195 0.06660679 -0.09364581 0.076784104 0.09677503 0.08432873 -0.063670434 -0.1184546
0.074238084 0.11375098 -0.019463776 0.087255865 0.10825615 -0.07798679 -0.02234544 -0.03948551
0.03958551 0.07870197 0.0048735896 -0.014346546 -0.1140696 -0.019987293 -0.06657706 0.0955648
0.0077472525 -0.012095774 0.080668025 -0.070154496 -0.053774234 0.043491837 0.105801135 0.02349478
-0.016836219 0.030301336 -0.07690328 0.0095317755 0.07475589 -0.01851297 0.017629204 0.046179008
-0.078685716 -0.065596044 0.059943356 0.09352336 -0.11244742 -0.030550465 0.10242738 -0.09318989
-0.050803658 -0.029563256 -0.07002696 -0.028975785 0.10145172 -0.06657904 0.03909213 0.041582942
-0.019218225 -0.08411597 -0.07052562 0.09146161 0.10158575 -0.008905734 0.023430847 0.079610966
-0.0886572 -0.050403368 0.014440644 0.06918979 -0.054153156 -0.07865121 0.089924194 -0.06846982
-0.0965312 0.08039033 0.0012096299 0.06337674 -0.028705506 -0.13456318 0.013336064 -0.040505927
-0.12084953 -0.11332241 -0.11550618 -0.09469621 0.09705788 -0.046248376 -0.04771908 -0.10528246
0.056329697 0.04320612 -0.011127828 0.039660417 -0.072049834 0.13647047 -0.032190993 -0.06256682
0.057021867 -0.08596707 0.12761658 0.12341076 -0.016871871 -0.009413007 0.062610194 0.063924484
0.006905937 -0.06833098 -0.03367133 -0.032437284 0.09683784 -0.008129582 -0.07540571 -0.09049208
0.049100067 0.05482636 -0.014851988 0.009542114 0.01085919 -0.05718147 0.06101732 0.052018512

encoder.transformer.layers.0.self_attn.out_proj.bias f4 [64]
00000000: fbfb 08bb 6178 653c 50ea a83b f1f6 233c
00000010: 4c0e 573b cb59 a63b e0d5 723b 0d06 233b
00000020: 8040 f3bb 7a8b 9bbb c0a5 2abc 2821 d4ba
00000030: 0aa2 29ba c344 4dbb e6b5 8e3b 095c e03b
00000040: 2db5 56bc fb04 fb3b 11b8 9dbb 9db5 973a
00000050: 8241 133c 8160 ffba 6451 1bbb 44a0 283c
00000060: 9bde d33b e8f5 603c eabd 0c3c 3166 1cbb
00000070: 7a8e 18bc 4aaf 693b 5136 913b 9349 f0bb
00000080: 080c edbb 4e85 4cbb 5cc5 d43b ce82 3b3c
00000090: a1ee 0ebc 6d03 f23b 0098 23bc 0f16 2cbc
000000a0: 12b0 5fbc dcbe a2b9 d7d0 d5b9 8466 ed38
000000b0: 66fc 9fbb b200 cfbb 546d e2bb 7084 d1bb
000000c0: cba1 563b 429c ebbb d564 9b39 d5e8 97bb
000000d0: 5305 6bbb ef5a c33a 97df 0e3a 797b ed3b
000000e0: a5bf 75b9 fbdd 4b3b 7944 baba b88d c3ba
000000f0: 4a3e e9bb 8f39 563c 332c 983b 041b 4c3c
-0.0020902145 0.014005751 0.0051548854 0.010007606 0.0032814918 0.005076622 0.003705375 0.0024875433
-0.0074234605 -0.0047468515 -0.010415494 -0.0016184198 -0.0006470984 -0.0031321503 0.00435518 0.006846909
-0.013104719 0.007660506 -0.004813202 0.0011574511 0.008987786 -0.0019483716 -0.0023699636 0.010292117
0.0064657456 0.013730504 0.008590201 -0.0023864622 -0.009311313 0.003565746 0.004431524 -0.0073329895
-0.0072341003 -0.0031207385 0.0064932536 0.0114447605 -0.008723886 0.0073856623 -0.00998497 -0.010503306
-0.013652818 -0.0003104125 -0.00040782124 0.00011320136 -0.004882383 -0.0063172216 -0.0069100056 -0.0063939616
0.0032750245 -0.0071902582 0.0002963903 -0.00463591 -0.0035861328 0.001490442 0.00054501876 0.007247385
-0.00023436414 0.0031107652 -0.001421108 -0.0014919555 -0.007118021 0.0130752465 0.004643941 0.012457613

encoder.transformer.layers.0.linear1.weight f4 [256, 64]
00000000: f889 c2bd 7ee1 733d e64b 8f3d 76ad 993d
00000010: c1d3 2ebd df31 f8bd 3001 c6bd 2406 e03d
00000020: 2588 b8bd 51a2 d03d 01f8 983d 41fc 86bc
00000030: b3ec f13d afc9 b53b 78c5 9cbd 7e8d d6bd
00000040: ecf8 873d 093d 1a3d 43df 853d f890 cebd
00000050: 8658 92bd a5a6 793d 893a 2b3d e129 a6bd
00000060: 8669 d23d 030a 08bd c4d6 aa3c d392 3cbc
00000070: 0f28 b7bc f34d adbd 03c0 5ebc ac6d 05bd
00000080: 135b 993d 9b30 e0bd 7482 d5bd 259e 67bd
00000090: b5f1 bbbc c6bc 983d bf07 043e bf7c b3bd
000000a0: ab89 a9bd b31f 2e3d 16c9 8dbb 4d0b df3b
000000b0: 7946 ec3d b990 c33d f2fb d2bc 4837 7c3d
000000c0: de7d b0bb b1db ad3d f6c2 0ebd 6bf3 b63d
000000d0: d6af 1b3d d8a9 a03c d110 5d3c 1ec4 62bc
000000e0: 3d78 11bc 8a07 cebd 24a5 8fbd 2fa1 50bd
000000f0: 281f f5bd fc0b 04be ebd8 013d 0736 483a
00000100: 8d86 373d 2d8d aebc 23c6 923d effd 4cbd
00000110: 1422 cfbc a50a ea3c fd34 6a3d 47c3 603d
00000120: 610d f8bd 2fda a7bd bc81 41bd 1111 c8bd
00000130: ad30 b33d 7bcd 623d 44b9 87bd 6f26 463d
00000140: 8810 c2bc d78a 323c 6f36 dbbd 1031 c4bb
00000150: 58ea d73d 9e11 9ebd b43e acbd 89e4 783d
00000160: 906f a53d 8914 6c3d f295 dd3d 75a1 423d
00000170: 5076 b139 6587 5f3d 2e0e 193d cdb8 203d
00000180: 1422 8abd 3b09 623d 8109 e3bd b6da 25bd
00000190: c182 a8bc 0453 edbc 1e4d a23d 334e 833d
000001a0: b125 ebbd 55db f9bc 9230 08be 9ca0 5bbd
000001b0: ec36 b4bd 7b1e 083d 59be 633c d515 75bd
000001c0: 4343 92bc 11ae 893d 066c 81bc e96f f43d
000001d0: 107c dcbd a2b5 793d 43ff 7c3d f087 cd3d
000001e0: e283 5d3c 2d20 47bd 051d 093e fb1a a93d
000001f0: d783 94bd 16c6 94bd 8997 2ebd da1f bb3d
00000200: 4234 0dbd 05b7 f63d ac9c 89bc 57a3 933d
00000210: 222a e53c 4241 8b3d 2c61 9a3c 0e29 23bc
00000220: 7e08 273d 7ac4 a13d b21b 9a3c 9adf 4fbc
00000230: 31f7 5f3d 4185 cb3d 530e e7bd c8ab 823d
00000240: a009 b13d cb6e d4bd 8f66 9e3d c61a 143d
00000250: 6612 d6bd 7664 a43d 9bb0 ab3d f665 ffbd
00000260: 5a54 2abd f7f1 943d ecf6 e7bd 6dc9 efbd
00000270: 0a05 c6bd d9ed d33d dbfc 81bd c143 21bc
00000280: 053b afbd ab15 b13c 4d54 aebd c568 9fbd
00000290: 897c ef3d 9638 94bd 7471 32bc de22 9f3d
000002a0: fbf0 e6bd cc5a 5abd be6a f03d f1c9 d3bd
000002b0: a887 52bd 63bc c3bd a37e b13b 0c68 28bc
000002c0: 84bb 32bd affa 343d 51c0 d13d 30ce 803d
000002d0: cd97 123d 561a 5fbd 7bc4 cabd 42dd 57bd
000002e0: 7cba 01be 2708 d3bd 678d 1e3d 4048 3ebd
000002f0: 8b21 943d b537 cb3c 0ed9 d8bd 84c5 adb9
00000300: e94f 1abd 1cf1 d6bd 2e4b eb3d 5f1e 99bd
00000310: 2c29 e1bd f95b e2bd 3a5b c5bd c62d 4cbd
00000320: d5be da3a 4208 efbd 3d37 e5bd 939a 84ba
00000330: 84fc edbd 40ee ce3b 979c 72bd da13 bdbd
00000340: 249a ec3d 86de c83d 1fb6 e33d eb7c 1a3d
00000350: 902b b43d c9a5 cebd 4c02 f6bd 37e2 f83d
00000360: 964b 893d 73d6 753c a7eb 4b3a 8de7 033e
00000370: 99ac f9bd c9a7 e43c 7969 b6bd 2fff 53bd
00000380: 50cb 9cbd c8bd 1cb9 e4b0 b33d f067 38bd
00000390: 4c12 7e3d 5045 f5bd bfec f7bc a18c 56bd
000003a0: b8bd dcbd a281 e0bd 1b7f 243c 629e 1b3b
000003b0: e103 aabd 0f60 8abd b9a1 0e3d 149c 1a3d
000003c0: 7ed6 a03d 5b1f 3f3d 8698 03be 177f 11bd
000003d0: 7530 813d e101 3bbd 4436 6d3d b6ec ce3d
000003e0: 90a3 febd 85d8 593d c668 203d f4d2 c7bc
000003f0: c418 fbbd 5f87 a9bd d407 bdbd 99c0 0dbd
-0.09498972 0.059541218 0.06996898 0.07503788 -0.042682413 -0.12118887 -0.09668195 0.10938671
-0.090103425 0.101872094 0.07469178 -0.016477706 0.11812725 0.005547724 -0.07654852 -0.10476206
0.06639275 0.037655864 0.065367244 -0.10086244 -0.07145791 0.06094994 0.04180387 -0.081134565
0.10274033 -0.033212673 0.020854361 -0.011509615 -0.022357969 -0.08462133 -0.013595584 -0.032575294
0.07488074 -0.10946771 -0.104252726 -0.056547303 -0.022942403 0.07457881 0.1289358 -0.08764028
-0.08278211 0.0425107 -0.00432695 0.006806767 0.11536879 0.09549088 -0.025754903 0.061576158
-0.0053860983 0.084891684 -0.034853898 0.08933147 0.038009487 0.019612238 0.013492779 -0.013840703
-0.008878765 -0.10060032 -0.0701392 -0.050934967 -0.11968833 -0.12895197 0.03170101 0.0007637445
0.044806052 -0.021307552 0.07166698 -0.050046857 -0.025284804 0.028569529 0.05717944 0.05487373
-0.12111927 -0.08195912 -0.047242865 -0.0976888 0.087495185 0.055371743 -0.066271335 0.048376497
-0.023689523 0.01089736 -0.10703742 -0.005987294 0.105427444 -0.07718204 -0.08410397 0.060764823
0.080779195 0.05763677 0.108196154 0.04751726 0.0003384822 0.05457248 0.03736704 0.03923874
-0.06744781 0.055184584 -0.11085797 -0.040491782 -0.02057016 -0.028970249 0.07924865 0.064114
-0.114817984 -0.030500093 -0.13299778 -0.053619966 -0.08799538 0.033232193 0.013900363 -0.059835274
-0.017854339 0.06722654 -0.01579858 0.11935408 -0.107658505 0.060964234 0.061766874 0.10035694
0.013520213 -0.04861467 0.13389976 0.08257099 -0.07251709 -0.072643444 -0.042624984 0.091369346
-0.034473665 0.12046627 -0.01679834 0.07208889 0.027974192 0.06799556 0.018845163 -0.009958519
0.040779583 0.07898803 0.018812034 -0.012687588 0.0546791 0.099375255 -0.11282029 0.06380421
0.08644414 -0.103726946 0.07734405 0.036158346 -0.10452728 0.08026974 0.08383294 -0.124706194
-0.04158435 0.07272714 -0.113263935 -0.11708341 -0.0966893 0.103481 -0.063470565 -0.009842814
-0.08556179 0.021616777 -0.08512173 -0.07783655 0.11693675 -0.072373554 -0.010891307 0.07770322
-0.11276432 -0.053309247 0.117391095 -0.10341252 -0.051398903 -0.09557416 0.0054167076 -0.010278713
-0.04363586 0.044184383 0.102417596 0.06289327 0.0357893 -0.054468475 -0.09900757 -0.052701242
-0.12668794 -0.10304289 0.03870907 -0.04645562 0.0723296 0.024806837 -0.10588275 -0.00033144292
-0.037673865 -0.10495207 0.11488949 -0.07476496 -0.10994181 -0.11052699 -0.09636541 -0.04984834
0.0016688952 -0.11671497 -0.111921765 -0.0010116867 -0.11620429 0.0063150227 -0.059231367 -0.09232302
0.115528375 0.09808068 0.11118721 0.037716787 0.087973714 -0.10090215 -0.12012157 0.12152522
0.0670387 0.015004742 0.00077789504 0.12881298 -0.121911235 0.027912037 -0.08906836 -0.051757034
-0.07655966 -0.00014948018 0.087739736 -0.045020998 0.062029168 -0.11976111 -0.030264257 -0.052380208
-0.107783735 -0.109622255 0.01004007 0.0023745527 -0.08301521 -0.06756603 0.0348222 0.037746504
0.07853411 0.046660762 -0.12851152 -0.035521593 0.063080706 -0.04565609 0.05791308 0.10103743
-0.12433541 0.053185005 0.03916242 -0.024392582 -0.12260583 -0.08277773 -0.09230009 -0.034607504

encoder.transformer.layers.0.linear1.bias f4 [256]
00000000: 001f 88bc 56cf 67bd 97ad 0c3d d61b bf3d
00000010: 6497 aabd e68b 33bd 00ed 40bd e2cf b8bc
00000020: d10b eabc aa8f a0bd ebc3 5c3d 1687 38bd
00000030: 8ae7 913d 2af0 b53d ccb9 3c3d 1297 81bd
00000040: c2ba e8bd a7fe cabc 1419 dabd de7e ac3d
00000050: 30aa acbc 8141 953c 802f b93c 2efd 3e3d
00000060: 6e68 92bd 7cdc b43d 27cc a5bd a1fd cebd
00000070: 8d37 84bd 491c 33bd 50f9 7cbc debb 873c
00000080: 0c8f 4c3d fdec 7b3c b5e4 eabd 53e5 383d
00000090: 0696 d73d 17e6 dbbc 3456 d93d 88c1 723d
000000a0: 6841 cbbd 5776 f43d a70e 99bd 540c 14bd
000000b0: a805 d73b e04a 8dbd f0c3 96bd fd3f 963c
000000c0: bf0d d73c 0f52 273d ca11 533d 0db9 9b3d
000000d0: d8f3 c1bd 8dd3 763c 80ac b5bb fd5b 533d
000000e0: 86f4 7f3d 760e 0f3c 11d7 cd3d 31e7 babd
000000f0: 56a2 5ebd 5585 043e 4857 3bbd 53cb f73d
00000100: c8ba 85bc 3d80 d8bd 44a3 46bb 27be b8bd
00000110: b402 debd 7f32 7f3c 3d0d debc 0ea7 993d
00000120: c2bf 0dbd 2094 67bd d262 8ebd e0e4 883d
00000130: e3d2 853d 48c3 253c dc31 633d ebfd 9abd
00000140: 6edf d43d d02a 113e 3087 25bd ff81 41bd
00000150: 0bdd a23d 959a 9abd c7b4 e1bc 7377 3abd
00000160: 88c9 1b3d d584 9cbd 649c 9bbd 6873 543d
00000170: bad2 513d 1762 6b3d f5b4 5a3d 7445 5dbd
00000180: 54ba 2ebd de27 1ebd 94a3 ad3c 988e cf3d
00000190: 5678 eabd 3f62 30bc 221e b33d 1e89 7cbd
000001a0: 9974 3b3d 1f89 aebd 0691 173d 9abc d4bc
000001b0: 3826 e6bd d959 913d 8766 963c be22 e0bd
000001c0: e412 ba3c aea4 793c eb11 ddbd 96c7 cebd
000001d0: 5119 07be 5453 d2bd ef0b e03d f824 57bb
000001e0: 3259 0fbd a4f3 bfbd c400 ba3d 552d 88bc
000001f0: f7bd 063e 1fd1 50bd a382 f83d 0e13 c1bd
00000200: 049c 64bd e23b f5bd a9c0 7cbd d3d4 a0bd
00000210: 0707 523d b202 193d 2135 06bc ea62 66bd
00000220: da7e a53d 7289 e43d 6624 b9bd 20e7 083d
00000230: 7bd5 fabd 699a 8cbd cd07 a13d a417 45bd
00000240: b7b3 ce3d 7921 8c3d 384d ab3d 9d3d f53c
00000250: ac50 923d d979 0c3d 33bb 84bc 2a60 c53d
00000260: a32b 8b3d 097f b2bd 3b6f 153e 8168 0cbd
00000270: 67c8 2ebc eaec d0bd 8fe7 eebd 4933 0bbc
00000280: 2e4f fcbc c970 b43d 8d2e b43d 0380 b03d
00000290: 2e5d c53d 9387 47bc e412 703d b4b8 f63d
000002a0: 103d 7abd 995a efbd 83ac 3e3d 15df ccbd
000002b0: 999b a3bc f550 14bd c265 91bd d02f 2cbd
000002c0: 74eb 38bc 0799 1b3d 6e86 063d d7d6 acbd
000002d0: 7bd8 86bd 20db 1abd bc61 863c 8589 9f39
000002e0: 7df6 d83c c0d2 2e3c eab9 bcbc 976a 9bbc
000002f0: 4e69 e13d f10e 093e 3c3a 66bd 228a d5bc
00000300: 444c 89bd afb6 a9bd cc43 a6bd f920 c43d
00000310: c56b 47bb 604f 05bd e85c a8bc baa4 053e
00000320: b8b8 61bc 496d 60bd 20d5 8abd dbcf 45bd
00000330: 65bd 1bba d505 dfbd 09f5 a5bd 9a36 bbbc
00000340: e225 523d aabb acbd 0887 b8bd 9a38 41bd
00000350: 231a 04be a49c 5b3d 3d55 e9ba 9e70 ddbd
00000360: 0591 a83d 5d2a c13d be6e 78ba 09db 8d3d
00000370: 826f 6cbd 9abf 0f3c d115 c3bd 4d42 df3c
00000380: a3e3 df3d d86e 9a3c c8ed c83c 88ce aebd
00000390: 3bc5 7d3d 6bf2 e43d 42ea bdbc f401 b93c
000003a0: 50ba bc3d f930 b1bd f770 28bd 5885 733c
000003b0: a7f5 2abd b6fe 733c 18b4 d33d 15ff c93d
000003c0: 5dee aabd 8873 05bd d811 db3d 175b c2bb
000003d0: 4c07 95bd 7aef 803d a329 013e 0f27 973d
000003e0: 8e19 973d 60ef ae3d a3ad 7fbc 0f89 2bbc
000003f0: bd17 d43c 4225 ffbb 712f ce3c a943 bebd
-0.016616344 -0.056594215 0.034345236 0.09331481 -0.08329657 -0.04383459 -0.04710102 -0.022560064
-0.028570088 -0.07839902 0.05389778 -0.045050703 0.07124241 0.08883698 0.046075627 -0.063276425
-0.11363746 -0.02477963 -0.106493145 0.084226355 -0.021077245 0.018219711 0.022605658 0.04662817
-0.07148825 0.088311166 -0.080955796 -0.101069696 -0.06455908 -0.043728147 -0.0154403 0.016569074
0.049941108 0.015376327 -0.11469404 0.045140576 0.105266616 -0.026843114 0.10612145 0.059266597
-0.099245846 0.11936634 -0.07473498 -0.03614457 0.0065619536 -0.06899047 -0.07361591 0.018341059
0.026251672 0.04084974 0.051530637 0.07603655 -0.09470338 0.015065086 -0.0055442452 0.0516014
0.062489055 0.008731475 0.10050786 -0.091261275 -0.054354034 0.12941487 -0.045737535 0.12099328
-0.016324416 -0.105713345 -0.0030309716 -0.09020644 -0.10840359 0.015576004 -0.027105922 0.07502566
-0.034606703 -0.056537747 -0.06952442 0.066842794 0.06534364 0.010117359 0.05546747 -0.07567962
0.10394178 0.14176488 -0.040412128 -0.047243115 0.07952317 -0.075490154 -0.027552022 -0.045524072
0.038033992 -0.07642523 -0.075981885 0.051867872 0.051226355 0.057466593 0.05339523 -0.054021314
-0.042658165 -0.03861224 0.021196164 0.101346195 -0.114487335 -0.010765611 0.08745982 -0.061654203
0.045765493 -0.085222475 0.03700354 -0.025968838 -0.112377584 0.07097215 0.018359436 -0.109441265
0.022714086 0.015237017 -0.10794433 -0.10096662 -0.13193251 -0.102698 0.10939776 -0.0032828432
-0.034997173 -0.09372643 0.09082177 -0.016623178 0.13158403 -0.050980683 0.12134292 -0.094274625
-0.05581285 -0.11974312 -0.061707173 -0.07853093 0.051276233 0.037356086 -0.008191378 -0.056246676
0.08080836 0.11159028 -0.090401456 0.033423543 -0.122477494 -0.06865389 0.07862816 -0.04811825
0.10092872 0.06842322 0.08364338 0.029936606 0.07144293 0.03429589 -0.016202545 0.096374825
0.067954324 -0.08715636 0.14593212 -0.03427935 -0.010667897 -0.10201438 -0.1166526 -0.008496114
-0.030799475 0.088105746 0.08797941 0.08618166 0.09636913 -0.0121783195 0.058611766 0.12046948
-0.06109339 -0.11687202 0.04655124 -0.10003487 -0.019971656 -0.03621002 -0.07099487 -0.042037785
-0.011286605 0.037987735 0.032843046 -0.08439415 -0.06584259 -0.03780663 0.016404025 0.00030429303
0.026484722 0.010670364 -0.02303787 -0.018971724 0.110064134 0.13384606 -0.05620788 -0.026066843
-0.06704 -0.08286797 -0.081184 0.095766015 -0.0030429226 -0.0325464 -0.020552114 0.1305112
-0.013776951 -0.054791722 -0.067789316 -0.04829393 -0.0005941003 -0.10889784 -0.08103377 -0.022853184
0.05130566 -0.084342316 -0.0901013 -0.04717312 -0.12900595 0.05361618 -0.0017801892 -0.10812496
0.08230785 0.09431908 -0.0009476951 0.06926543 -0.05772353 0.008773709 -0.095256455 0.027253294
0.1093209 0.018851683 0.024527445 -0.085354865 0.06195567 0.1117905 -0.023182992 0.02258394
0.09215224 -0.08651919 -0.041123357 0.014863335 -0.04173818 0.014892271 0.103370845 0.09863106
-0.083462454 -0.032580882 0.10696763 -0.005931269 -0.072767824 0.062956765 0.1261354 0.07380497
0.07377921 0.08541751 -0.015605363 -0.010469689 0.025890226 -0.007786424 0.025169106 -0.09290249

encoder.transformer.layers.0.linear2.weight f4 [64, 256]
00000000: f6fe fe3c 60e2 17bd 0293 b4bc 229d 1a3c
00000010: ba1f 61bd f7f3 8d3c 74c0 47bd ff9e a03c
00000020: c379 37bd a5ab 803d de3e 41bd 5b15 ec3b
00000030: 6a3e 6bbd 041c f13c fcfb 08bd 4f05 1b3d
00000040: bcff f0b9 3ddd 04bd 009c 0abb 0f9b 8bbd
00000050: 2277 903d c7cf 36bd a4e0 45bd 55cc 863c
00000060: 36b0 0d3d d5f2 a03b 5d8e 123d 49c9 2abd
00000070: 4e15 62bd 2706 7dbc e3ea 4ebd 66b0 743d
00000080: 53a6 a4bb 0d97 713d 6c6a 6bbb 4647 4f3c
00000090: 19c6 1fbd d7d6 623d 928c 323d 606c 31bd
000000a0: 9b20 37bd f798 42bd af6f e43b c403 0ebd
000000b0: e994 fe3c bbe1 193d 606c 273d 800f 49bc
000000c0: 5cae 71bc 1990 00bb 8aff c23c c016 47bd
000000d0: ae01 ea3b 93ef 773c 2136 2d3d d01a 033c
000000e0: b58f 01bd d198 57bd 93cd 893c 6195 0b3d
000000f0: b965 aabc f560 1c3b 439b 6b3d 780e 87bb
00000100: 1647 36bd ac43 a6bc 2460 0abc 18a7 fcbc
00000110: 6007 713d d8b9 34bd 624b 88bd 86bd e53c
00000120: 15a6 6b3d 056c db3c c485 6bbd 0fa2 8c3d
00000130: a173 a73b f613 87bc f23b 773d 85ad d83b
00000140: 473c 883c 1da6 223c 5466 93bc 5a93 33bc
00000150: a087 0f3d 1cc0 743d 5794 b23a b4c4 1bbd
00000160: 1809 b13c 7c23 f0bb 16c5 053d 0d94 45bd
00000170: 6e72 8b3d 9734 333d bc02 30bd b035 f53c
00000180: 9ca5 14bd b5a9 5dbd 8a58 c1bc 7736 443d
00000190: a71d 343d 8d17 ad3b b3cb 1fbd fac1 5ebd
000001a0: 22f6 2e3d 49e6 453d 8083 223c 7482 e53c
000001b0: bb4f 0d3b 26f4 3a3d 470e dfbc 014e d6ba
000001c0: 9fd4 12bb 5434 3cbd e59a ecbc 4ba2 e0ba
000001d0: 163d 863a 1e72 6abd 07d6 7fbd d73e 6abd
000001e0: 4c1c e1bc 1678 6f3d 0af3 38bd be98 c0bc
000001f0: 2a9e 943d ae64 3f3d 1df5 733d 9702 84bd
00000200: 4122 1dbc 14c0 743d c0ff ddbc 466e 03bd
00000210: dc46 84bd 6abd 7c3d a824 78bd 20dd 7abd
00000220: 6310 61bd 9f4c c2bc b97e e43c 83a8 083c
00000230: b474 acbc f6c8 5cbd d428 acbc 32fb 113d
00000240: 600f b8bc cdc5 edbc 7990 4bbd 224d 713d
00000250: 3a7c d63c 3209 ab3c 08de 173d 131a 78bd
00000260: bca9 093e afad a7bc 4d07 e0bc f594 1abd
00000270: 20ae 533d be4b 78ba 1d82 4bbd 0bc4 a2bc
00000280: 08ce afbb 120e 6fbd 1361 24bd 95fc 843d
00000290: 4777 7b3d 8ce4 273c d14d a0bc 9532 6a3c
000002a0: ad0e c83c 25f9 683d 343e 82bd 88e8 60bd
000002b0: 583f c03b 4063 553d e13b 2bbb 3838 d3bc
000002c0: aacf 343d e167 56bd a408 edbb 1eaa 75bb
000002d0: 18f1 823d a0ef 45bc 9be5 1d3c a986 303b
000002e0: ab32 043d eafb 71bd c21c a53c ed55 8cbd
000002f0: 1ad2 233d f84c 943c 0bd1 b0bb 00bc 353b
00000300: 18c8 5f3d 74fb 8f3b f8ed dbbc 352f c13c
00000310: 8be3 7dbd f4e9 6fbd 0dcb 5abd 0d14 6a3d
00000320: 27ba 693d 9371 293b 814b 6a3d da02 50bc
00000330: f4ed 823d aa98 09bd 38c9 de3c 6ae1 943c
00000340: 0580 863d c56e 123d b8ff d9bc 2de1 153c
00000350: c120 5c3d 4443 a2bb 1040 8c3d a4d6 e03c
00000360: 2119 143d 53cd 423d 9001 253d 3cdc 58bd
00000370: 9649 20bd 7bd2 89bd dbbb f63b 5735 d33b
00000380: 3ab8 29bd da06 50bb 2ebc 01bd 6914 263d
00000390: e8fe 07bd 526d 193c b7dc ca3c 25a4 93bc
000003a0: 2ab5 ed3c 3af2 fd3c 6017 fb3a 424d 653d
000003b0: 2470 85bb 3f0a a03c 2769 1b3d 8826 18bd
000003c0: 87c3 fabd d43c 433d 4808 38bd 4bee 60bd
000003d0: 9bb4 ee3c 0947 223e e564 63bc f6d1 16bd
000003e0: e659 05bd 24e7 26bd af06 413d 0b1a 34bd
000003f0: 299c 79bd effd 88bd 7189 053d 6d60 e33c
0.031127434 -0.037081122 -0.022042755 0.009436877 -0.054961897 0.017328246 -0.048767522 0.019607065
-0.044793855 0.062827386 -0.047179095 0.007204694 -0.05743257 0.029432304 -0.033443436 0.03784686
-0.00045966904 -0.03243755 -0.0021150112 -0.068166845 0.07053973 -0.044631746 -0.048309937 0.016454855
0.034591876 0.0049117603 0.0357803 -0.041695867 -0.0551961 -0.015443361 -0.050516974 0.05973854
-0.00502471 0.058981944 -0.0035921587 0.01265127 -0.03900728 0.05538067 0.04359109 -0.043316245
-0.04470883 -0.04750916 0.0069713215 -0.03467156 0.031076865 0.03756879 0.04087484 -0.012271762
-0.014751043 -0.001961714 0.023803491 -0.04860568 0.0071413135 0.015132803 0.04228795 0.008001998
-0.03163119 -0.05263597 0.016821658 0.034078006 -0.020800458 0.0023861502 0.057521116 -0.004121598
-0.044501387 -0.02029594 -0.008445773 -0.030841395 0.058844924 -0.044122547 -0.06655003 0.028044473
0.057531435 0.026784906 -0.057500616 0.06866848 0.0051102196 -0.01648901 0.060359903 0.006612482
0.016630305 0.0099273 -0.01799313 -0.010960424 0.03504145 0.059753522 0.0013624531 -0.038029388
0.021610782 -0.007328449 0.03265866 -0.048236895 0.06808935 0.043751325 -0.042971358 0.029932827
-0.03629075 -0.054116923 -0.023601789 0.047903504 0.04397359 0.0052823485 -0.039012622 -0.05438421
0.0427152 0.04831532 0.009919047 0.028016306 0.0021562416 0.045642994 -0.027228488 -0.0016350151
-0.0022404564 -0.04594834 -0.028882453 -0.0017138211 0.0010241594 -0.057237737 -0.06245997 -0.057188835
-0.027479313 0.058464132 -0.045153655 -0.023510333 0.0725673 0.046726875 0.05955993 -0.064458065
-0.009590686 0.059753492 -0.02709949 -0.032087587 -0.06458828 0.061704077 -0.060581833 -0.061246037
-0.05494727 -0.023718176 0.027892457 0.008340958 -0.021051742 -0.05390259 -0.021015562 0.03563995
-0.022468269 -0.029024983 -0.049698327 0.05891145 0.026182283 0.020878408 0.03707698 -0.06057174
0.13443655 -0.020468561 -0.027347231 -0.037739713 0.05167973 -0.00094717357 -0.049684633 -0.019868871
-0.005365137 -0.058363028 -0.04013164 0.06493489 0.06139305 0.010247361 -0.019568356 0.014294286
0.02442106 0.056878228 -0.063595206 -0.05490926 0.005866926 0.052096605 -0.002612822 -0.025783643
0.044143356 -0.05234516 -0.007233696 -0.003748543 0.06393641 -0.012081057 0.009637262 0.0026935732
0.032274883 -0.059078135 0.020155314 -0.068523265 0.03999529 0.018103108 -0.0053960136 0.0027730465
0.054634184 0.004393989 -0.02684687 0.02358208 -0.06198458 -0.058572724 -0.0534163 0.05714803
0.057062294 0.002585505 0.057200912 -0.012695992 0.06393042 -0.033592857 0.027195558 0.018173892
0.065673865 0.03575017 -0.026611194 0.009147924 0.053742174 -0.0049518663 0.068481565 0.027446099
0.036156777 0.047559094 0.040284693 -0.052944407 -0.039132677 -0.06729599 0.0075297183 0.0064455676
-0.041435458 -0.0031742365 -0.031673603 0.04054681 -0.033202082 0.009364443 0.024763448 -0.018022606
0.02901705 0.030999292 0.0019156747 0.055981882 -0.004072206 0.019536136 0.037942078 -0.03714612
-0.12244325 0.047665432 -0.044929773 -0.054914754 0.029138854 0.1584741 -0.013879036 -0.036821328
-0.032556437 -0.040747777 0.047125515 -0.04397015 -0.06093994 -0.06689059 0.032601777 0.02775594
